sign_model.tflite (tflite, 777328 bytes, 15 tensors)

arith.constant3 f4 [5, 32]
000000 4e 90 59 3c c0 38 a1 be 55 4d d7 3d 5d f1 a6 3e
       0.013279034 -0.3148861 0.10512797 0.3260602
000010 e3 58 b0 be b0 6c 18 be a3 6e 3a be 68 a3 70 bd
       -0.34442815 -0.14885211 -0.18206267 -0.058749586
000020 fe 4a 29 bc d7 cc de 3c a2 f8 02 3e df df 70 3e
       -0.010332821 0.027197285 0.12790158 0.235229
000030 87 04 fb 3c 46 90 99 3c 24 d0 90 be ba 7a 46 3e
       0.030641807 0.018745553 -0.282838 0.19382754
000040 14 e4 5a 3c d7 fd 81 be 09 d3 8f 3e 63 c6 d4 3e
       0.013360042 -0.25388977 0.28090695 0.41557607
000050 c8 97 76 3e c4 43 bc be 22 38 9a be b3 b8 0c be
       0.24081337 -0.3677045 -0.3012095 -0.13742332
000060 ff 93 c3 3d bd ca bd be 5c c9 b0 be 86 ad 84 3e
       0.095497124 -0.3706874 -0.34528625 0.25913638
000070 d3 2e bd 3e 9f e0 a7 be b2 f7 82 be 4d 5f 93 be
       0.36949787 -0.3278856 -0.25579602 -0.28783646
000080 e7 21 10 be 91 a3 af be 18 74 56 be 6b a6 84 be
       -0.14075433 -0.3430448 -0.20942724 -0.25908217
000090 04 b1 a7 be 48 d2 95 be 32 fa a2 3e b1 94 1c be
       -0.3275224 -0.29261994 0.3183151 -0.15291096
0000a0 e0 7b c4 bd f4 1b d8 bd 82 64 a5 be a7 46 06 3e
       -0.0959394 -0.10552207 -0.32303244 0.13112889
0000b0 56 a1 83 be 8a e2 72 bd 41 20 4a bd 3c de a3 be
       -0.25709027 -0.059298076 -0.049347166 -0.3200549
0000c0 75 b4 be bd e1 0e 10 3c 9d 4c 82 3e 7b c7 74 3d
       -0.09311763 0.00879261 0.25449076 0.059760552
0000d0 2c cf 3b 3e dd de dd be d8 b5 d1 3d 31 ca a7 be
       0.18340749 -0.43334094 0.10239762 -0.32771447
0000e0 8c 8d 1c 3d 70 40 5c 3e 76 7c 9d 3e f4 60 af 3e
       0.038220927 0.21508956 0.3075902 0.34253657
0000f0 78 7f b4 3e 42 2e de be 2b ed 54 3e 2e 93 1f 3d
       0.352535 -0.43394667 0.20793597 0.03895872
000100 3d 64 c4 3d e5 06 ae be ca 98 57 3e bc 9d 8d be
       0.095894314 -0.33989635 0.21054378 -0.27659404
000110 68 2f 7d 3e 1b 51 84 3e ae 78 d0 bd 76 69 8a be
       0.24725115 0.2584313 -0.10179268 -0.27033585
000120 2c ac 61 3e 04 db 3b 3e dd 27 3a 3e 78 c9 1b 3e
       0.22038335 0.18345267 0.18179269 0.15213573
000130 1f f9 8c 3e d5 54 d5 be f0 8f 73 be 51 3d 8f be
       0.27533814 -0.41666284 -0.23785377 -0.27976468
000140 be 78 d8 be 83 96 49 3d e1 44 98 3b 35 e9 50 3e
       -0.4227962 0.049215805 0.004646883 0.20401461
000150 4c 07 8c 3e 7f bc 91 3e d8 14 6f 3e ea a4 5f 3d
       0.27349317 0.28464124 0.23347795 0.054600634
000160 0f d1 4a be af 10 bb bd c4 ea 89 3c 64 f3 8b be
       -0.19806312 -0.091340415 0.016835578 -0.2733413
000170 2e 0e b8 3e ab 27 ba be d0 d3 2b be 7e 14 8d 3d
       0.35948318 -0.3635839 -0.16780019 0.06888674
000180 ab 1c c2 be 77 a9 c1 be ed c8 3b be 0d e7 ac 3e
       -0.37912497 -0.37824604 -0.18338366 0.33770028
000190 f7 e0 7d be 9d c1 9e 3d a3 f7 3a 3e 81 18 59 be
       -0.24792849 0.077517726 0.18258528 -0.21200754
0001a0 e1 a3 a0 3e 7b 1b 91 3e 2f 57 9b bc 0d 03 6e 3e
       0.3137503 0.28341278 -0.01896247 0.23243351
0001b0 d7 03 d1 3e 6d 78 34 be c5 d9 ac 3e ff 41 f9 bb
       0.40823242 -0.17624064 0.33759895 -0.0076067443
0001c0 59 da b2 be c4 2a 32 be b0 f7 14 3e 3c 38 91 be
       -0.3493221 -0.17399126 0.1454761 -0.28363216
0001d0 ec c2 2f 3e 7c bb 5e bd b8 45 91 bd ad ba c2 3e
       0.171642 -0.054378018 -0.07093376 0.38033047
0001e0 43 10 10 3d 7b 96 72 3e 5f 41 29 3e 89 47 a9 be
       0.03517176 0.23690216 0.16528843 -0.3306239
0001f0 ea d2 22 be 4a 64 81 bd 11 62 da bd c0 89 2e 3e
       -0.1590077 -0.06317957 -0.10663236 0.17044735
000200 44 44 bc 3e 3f d9 8f be 01 35 0e be fa d0 26 3e
       0.36770833 -0.28095433 -0.13887407 0.16290656
000210 a8 50 ef 3d ee d7 05 3e b0 98 dd 3d 70 75 b7 be
       0.11685306 0.13070652 0.108201385 -0.35831785
000220 8e 97 ed bd 4d 6c 18 be c6 c7 f1 bd 0c a6 82 be
       -0.116011724 -0.14885063 -0.11805682 -0.2551731
000230 ab 36 54 3e 7f 71 be be 3e 30 58 3e ce 7b 76 be
       0.20723979 -0.37195966 0.21112153 -0.24070665
000240 17 12 a5 bd 22 33 34 3e a4 05 cc be b7 39 8a bd
       -0.08060091 0.1759763 -0.39848053 -0.067492895
000250 c5 aa 8e be b5 31 a5 bd b8 7c 70 bd 62 ec a5 3d
       -0.27864662 -0.080661215 -0.05871269 0.08101727
000260 6e d1 63 3e 31 ed b2 3e 57 8e ca be 9e 36 ba 3e
       0.2224786 0.34946588 -0.39561722 0.36369795
000270 26 16 8b bd 8e 6c 2b be bf ad a2 3e 26 75 75 be
       -0.06791334 -0.16740629 0.31773183 -0.2397047

arith.constant4 f4 [32, 64]
000000 af 6e bd bd ee 7e 49 be c5 81 07 3e df 84 4f 3e
       -0.09249627 -0.19677326 0.13233097 0.2026553
000010 3d 8b 3f be e6 75 49 3d 08 45 0a 3e 8a f2 69 3e
       -0.18705459 0.049184702 0.13502896 0.22846428
000020 e5 68 6a be 5a 99 6c 3e c2 e7 45 be e2 e3 cc 3d
       -0.22891577 0.23105374 -0.1932669 0.10004403
000030 ef 93 34 bd 4e 0c 3d bd 66 bb cb 3c 46 3b 39 3e
       -0.044086393 -0.046154313 0.024869632 0.18089017
000040 d6 cd 6e 3e 1a 5b 7a 3e 8f 30 0c be ae 8f 15 bd
       0.23320708 0.24448815 -0.13690399 -0.036513977
000050 20 b0 75 be 1f 40 44 3e 13 51 4d be 75 1e 1d be
       -0.23992968 0.19165085 -0.20050459 -0.1534365
000060 ab 03 4c be 23 53 71 3e 44 54 0a 3e be 17 08 3e
       -0.19923274 0.2356687 0.13508707 0.13290307
000070 98 16 50 3e 89 4c 5d 3e d4 b1 9d 3c 1c 39 68 3e
       0.20321119 0.21611227 0.019249834 0.22678035
000080 8c 9b 5d 38 e1 d5 2b 3e 54 5c d9 bd d3 23 38 be
       5.283537e-05 0.16780807 -0.10613313 -0.17982416
000090 3d 95 04 be e9 e3 85 bc 54 a8 5f be aa d6 29 3e
       -0.12947555 -0.016344028 -0.21841556 0.16585794
0000a0 53 e2 3f be 16 2d 16 3b 2c e5 b1 3d fc 30 98 bd
       -0.1873868 0.0022915057 0.08686289 -0.07431218
0000b0 8a 8d 59 be b1 3a dc 3d 0a 43 ec 3d 1e 6f 69 3c
       -0.21245399 0.10753382 0.11536224 0.014247684
0000c0 31 64 d2 bd de d5 34 be 03 f8 44 be 82 4b 73 bd
       -0.10273016 -0.17659709 -0.19235234 -0.05939818
0000d0 cd 2f 5c be a0 69 c5 3d e4 65 32 3e df 48 17 3e
       -0.2150261 0.09639287 0.1742168 0.14773892
0000e0 c2 4d cd 3d 21 fc d1 3d d3 c1 3c bc 33 31 00 3d
       0.10024597 0.10253168 -0.011520821 0.03129692
0000f0 43 b9 6b 3d 19 48 96 bc 4e 63 fc 3d c6 5d 71 be
       0.057549726 -0.018344926 0.12323628 -0.23570928
000100 f5 3d 19 3e ed ed ae 3d de b4 10 bc bb cd 1f bd
       0.14965041 0.085414745 -0.008832185 -0.03901456
000110 90 73 2f 3d 82 43 39 3e 9f 11 d0 bd 5e 94 4b be
       0.04283482 0.18092158 -0.10159611 -0.19880816
000120 55 76 10 be 5b e6 4b 3e 1c 6e 77 3e 90 97 12 bd
       -0.1410764 0.19912092 0.24163097 -0.035789073
000130 19 3e 35 3e 00 eb a1 bb 0d 2d 66 3e 42 f7 93 bd
       0.1769947 -0.0049413443 0.22478123 -0.07224895
000140 2b 1e 1c bd 37 6c 81 3d 10 16 3a be ec 79 b3 bc
       -0.038114708 0.063194685 -0.18172479 -0.021908723
000150 bf 07 e2 3b 52 9d 63 3c 75 45 86 be 10 e2 b2 3d
       0.006897896 0.013892489 -0.26224867 0.08734524
000160 e3 e6 f6 bc 16 5e 9b bd a9 28 1f 3d bc 01 1c be
       -0.030139392 -0.07586305 0.038857136 -0.15235037
000170 20 e6 80 3c 38 35 66 be 68 83 9f 3d ca 0a 7f 3d
       0.015734732 -0.22481239 0.07788736 0.06226615
000180 a3 87 06 be 19 ea 3b 3e 37 07 98 3c 8f 2c 77 3e
       -0.13137679 0.1835102 0.018558128 0.24138092
000190 e3 9b 89 bd 67 c4 ea bd e3 67 64 bd 4c 23 d7 3c
       -0.06719186 -0.11463242 -0.055763137 0.026261948
0001a0 95 0c 1f 3e 90 f9 a3 bd 70 4d 93 ba bc a9 7b be
       0.15532143 -0.08006585 -0.0011238288 -0.24576467
0001b0 95 bd da 3c 4a e4 6d be 51 26 47 3e 95 e1 1f 3e
       0.026701728 -0.23231617 0.1944821 0.15613396
0001c0 37 75 e8 3d 00 e9 20 3d 4c d8 00 3d 6c b9 b6 bd
       0.11350482 0.039284706 0.031456277 -0.08922085
0001d0 fd 97 02 be b0 f0 3d 3e cc 65 25 be 73 01 71 bb
       -0.12753291 0.18548846 -0.16152114 -0.0036774545
0001e0 0d 8a 4b be b4 34 43 3e 88 c9 c4 bd 36 8e 5f 3e
       -0.19876881 0.19063073 -0.096087515 0.21831593
0001f0 31 3c 04 be 27 62 1e be 42 9b 3b bd ed f4 95 bd
       -0.12913586 -0.1546713 -0.045802362 -0.073221065
000200 76 82 10 3e 14 6a 17 be 70 b4 4e 3e 7c f3 b9 bd
       0.14112267 -0.1478656 0.20186019 -0.09079644
000210 d8 32 05 3e ff b8 76 be 24 27 bd bd b1 ee 60 3e
       0.13007677 -0.24094008 -0.09235981 0.21966054
000220 68 47 75 be ba 73 6b 3e a4 7c 37 3e 9d 63 aa 3d
       -0.2395302 0.22993365 0.1791864 0.08319781
000230 cf 0d 3f be 20 51 1d 3d 40 b5 01 be 41 58 62 3e
       -0.18657611 0.038407445 -0.12666798 0.22103979
000240 06 3c 69 be 37 92 e4 bd 6e df 92 bd e6 8c 70 3e
       -0.22776803 -0.11160701 -0.07171522 0.23491248
000250 31 6e bf bd 6e 75 1e 3d 5c a6 50 be 00 bb 4d 3c
       -0.09347189 0.03868621 -0.20375961 0.012556791
000260 bc e7 ab 3d 78 75 ed bd 9b 85 ba bd 3f cb 5c be
       0.08393809 -0.11594671 -0.091075145 -0.21561907
000270 7f 8d 7e bd cb cf 8b bd 0c a1 3d 3e 18 11 bc bd
       -0.06214666 -0.06826743 0.18518466 -0.09182948
000280 56 67 64 be 60 2b 6f be 85 b5 94 3d 8c b0 dd bd
       -0.22305045 -0.2335639 0.072611846 -0.10824689
000290 2b 29 6b 3e c7 e7 14 3e 13 30 b6 bc 8f aa b4 3d
       0.22964923 0.14541541 -0.02223972 0.08821594
0002a0 3c 7d 6f be 1c b2 68 be d6 ee 75 be 1c 96 20 3d
       -0.23387617 -0.22724193 -0.2401689 0.039205655
0002b0 db de 02 be 52 22 b3 bd 70 ba 8d bd 61 f9 ee 3d
       -0.12780325 -0.087467805 -0.06920326 0.11668659
0002c0 f8 34 66 3e e4 37 69 be 0a 9c b1 bd 07 f5 b7 bd
       0.22481143 -0.22775227 -0.0867234 -0.08982282
0002d0 5b dc b2 bd cc 0f 70 be 9f c3 7b be 8c d0 dc 3d
       -0.08733436 -0.23443526 -0.24586342 0.10781965
0002e0 1e dc 10 3e 20 ed ad bc 7e 38 c3 3d e8 4f 26 3e
       0.14146468 -0.021231234 0.095322594 0.1624142
0002f0 44 93 6c bd e7 a0 e7 3c e9 ed 58 3e 19 ed f6 bd
       -0.05775763 0.028274966 0.21184506 -0.120569415
000300 11 46 ef bd 6e 3c 5e 3e 70 d4 89 3d 9c 7d 5b 3e
       -0.11683286 0.2170274 0.06729972 0.21434635
000310 80 56 3d be f2 d2 74 be f6 4c 68 3e 6c de 4a 3d
       -0.18490028 -0.23908594 0.22685608 0.049528524
000320 40 53 dc bd e8 a4 fe 3c 00 c9 cc bc 40 bd 42 3d
       -0.10758066 0.031084493 -0.024998188 0.047543764
000330 1a 36 9f bd 5f f0 61 be ce 5f e0 bd e4 62 67 bd
       -0.07773991 -0.2206435 -0.10955773 -0.056490794
000340 51 86 21 3d 1c b3 66 be 00 10 e7 ba 8c 52 2a bc
       0.039434735 -0.22529262 -0.001762867 -0.010395657
000350 4a de c2 bb 70 9c 70 3e c3 4b 13 3e 04 81 6f be
       -0.005946909 0.23497176 0.1438437 -0.2338906
000360 f9 57 74 be e4 bb 2a 3d e5 eb 05 be dc f9 54 be
       -0.23861684 0.041683093 -0.13078268 -0.20798439
000370 59 d0 51 3e 35 e7 44 3e 10 11 b8 bd 0c 59 cf 3d
       0.20489635 0.19228823 -0.089876294 0.10124406
000380 6b 6a 31 be ff 16 73 bd 66 04 07 3e 58 b6 75 be
       -0.17325751 -0.059348103 0.13185272 -0.2399534
000390 58 e7 23 be 72 fc 59 be 66 66 97 3d f6 83 c1 3c
       -0.1600622 -0.21287706 0.07392578 0.023622494
0003a0 a5 1d 0c 3e a0 7e fb 3d e7 5d d4 bd cc 36 ec bd
       0.13683183 0.12280011 -0.10369473 -0.11533889
0003b0 6f 98 68 bd a4 68 97 bd 82 0f 06 be b6 7a aa bd
       -0.056785997 -0.073930055 -0.13091853 -0.083241865
0003c0 c0 3e 52 bc 10 c7 1e 3d 1e 3c 1f be fb 10 f4 3d
       -0.012832344 0.03876406 -0.15550277 0.11917301
0003d0 62 f1 56 3e 45 f1 d9 3d 57 94 76 be 74 56 7a be
       0.20990518 0.10641722 -0.24080025 -0.24447042
0003e0 ab 0d f4 3d 5c 75 12 bc 4b 25 6d be e9 5c c6 3d
       0.119166695 -0.0089391135 -0.23158757 0.0968569
0003f0 51 9b 4b 3e 84 0a 22 be e3 3a 2e 3e 57 bc b4 3d
       0.19883467 -0.15824324 0.17014651 0.088249855

arith.constant5 f4 [64, 64]
000000 3b 64 09 be 5a 7c 5f be f6 d2 8d 3d 4f 8d 6f 3d
       -0.13417141 -0.2182478 0.06925003 0.05848437
000010 12 b2 31 bd 92 a5 be bd 29 82 62 3d e5 97 ed bd
       -0.04338271 -0.09308924 0.05529991 -0.11601237
000020 f0 7e 3a 3e b5 49 a3 3d e5 d9 d1 3d 9e 9d 61 bc
       0.18212485 0.07973043 0.10246638 -0.013770489
000030 ff 03 f0 bd 6b 93 37 be fe 9d 1c be 30 88 42 bd
       -0.11719512 -0.17927329 -0.15294644 -0.04749316
000040 3f 3d b7 3d 73 a7 25 be 16 4f 03 3d 93 be 2a be
       0.08947229 -0.16177158 0.032057844 -0.16674261
000050 61 a5 0e be bc da 2a be c9 12 f8 3d bc 36 b3 bd
       -0.13930275 -0.16685003 0.12112958 -0.08750674
000060 2e 73 0a 3d e9 67 b5 3d 2f 96 5b 3e b2 be 84 bd
       0.03380125 0.0885771 0.21444009 -0.06481685
000070 84 33 97 3d f7 7b a3 3d 62 ee ac 3d d1 ad d4 bd
       0.07382873 0.07982629 0.084439054 -0.10384715
000080 d9 64 53 3e 45 e1 f3 bd fc 2b 0d be 45 c7 4a 3e
       0.20643939 -0.11908201 -0.1378631 0.19802578
000090 98 e8 ac 3c f7 00 30 3e fa 5c 0a be 49 9c 12 3e
       0.021107003 0.17187868 -0.1351203 0.1431743
0000a0 ae fc 03 be d9 be 3b 3e cd b0 f2 3d 20 4f dd 3d
       -0.12889358 0.18334521 0.11850128 0.108061075
0000b0 1f 8c 01 3e b9 6d fa bd 53 d3 19 3c 99 4c 3b 3e
       0.12651108 -0.12227959 0.0093887625 0.18290938
0000c0 83 dc f1 3d 2e 78 8c bc 97 7a 4a be 4c 12 a8 bd
       0.118096374 -0.01714715 -0.19773327 -0.08206615
0000d0 b4 ae 78 3e d6 54 18 3e e6 34 15 3e cf b8 19 3a
       0.24285394 0.14876112 0.1457096 0.00058640254
0000e0 cd 19 0c be 22 ba dc 3c 67 dd a8 bd 7d fe d3 3c
       -0.13681717 0.026944224 -0.08245354 0.025878185
0000f0 42 4c 8e 3c 25 af 50 3e 33 f5 e1 3d 55 87 45 be
       0.017370347 0.20379312 0.11033096 -0.19289906
000100 c8 50 39 be f3 df bb 3d d6 30 86 bd 68 53 42 3e
       -0.18097222 0.09173574 -0.065522835 0.1897713
000110 31 5f d1 3d ec d6 66 3d 82 c6 cc bb 39 1c 4c 3e
       0.102232344 0.05635731 -0.00624925 0.19932641
000120 68 b8 89 bd 96 ad 11 be cd 68 c9 bd 82 c3 38 be
       -0.06724626 -0.14226374 -0.09834442 -0.1804333
000130 d6 1a e5 bc 85 1f a2 3d 3d 07 e0 3d 85 fe 43 bc
       -0.027966898 0.07916168 0.109388806 -0.011962538
000140 23 14 9d bd d7 34 f6 3d d0 c4 d6 3d 3b c0 39 bd
       -0.076698564 0.12021797 0.10486758 -0.04534934
000150 20 c8 dd bb 46 50 3e be 06 28 53 be a8 c4 55 be
       -0.0067682415 -0.1858531 -0.20620736 -0.208758
000160 a3 1f eb bd ea e5 d7 bd ac 65 2b 3e e9 35 0b 3c
       -0.114806436 -0.105418995 0.16738003 0.00849674
000170 85 ea 56 be d3 45 f8 3d ba 4c 53 3c d2 f9 15 be
       -0.209879 0.12122693 0.012896711 -0.1464608
000180 b3 02 98 bd 57 41 33 be a9 41 87 3d ca 87 41 be
       -0.0742239 -0.17505394 0.066043206 -0.18899456
000190 15 82 4d be ce d6 d4 bd 1f 4c 9a 3c 39 57 53 be
       -0.20069154 -0.10392533 0.018835125 -0.20638742
0001a0 1d 83 c5 3d 4e e1 fb bd 22 eb e6 bd d9 27 29 bc
       0.096441485 -0.12298833 -0.11275317 -0.010324442
0001b0 f5 c4 d8 3d 4a 21 7e 3d 38 b9 e9 bc 41 24 fa bd
       0.105844416 0.062043466 -0.028530702 -0.12213946
0001c0 38 5e dc bc 70 68 1c be ec 7a 4e bc 64 3f 82 bc
       -0.026900396 -0.15274215 -0.012602549 -0.015899368
0001d0 d2 aa a0 bd 7e 2c 4a 3e 5c 86 3e 3d d5 b8 61 bb
       -0.078450814 0.19743535 0.046514854 -0.0034442444
0001e0 0f 36 13 3d 8b 83 38 be c5 64 77 bd ba 0a a8 bd
       0.035940226 -0.1801893 -0.060398836 -0.08205171
0001f0 7e e6 b1 3d f5 7c 3f bd 95 a3 5e be c0 a6 30 3e
       0.08686541 -0.046750028 -0.21742089 0.1725111
000200 ae 8a 7f bc 10 fd ef 3d eb 51 44 bd 6b f8 34 3e
       -0.015597029 0.1171819 -0.047929686 0.17672889
000210 1d f9 60 3e 2f f5 3d 3e c8 a3 18 be 19 0e 00 be
       0.21970029 0.18550561 -0.14906228 -0.12505378
000220 5f 1e 5b be 40 33 27 be ef 45 ca bb a0 b1 d3 bc
       -0.21398304 -0.16328144 -0.0061728875 -0.025841534
000230 61 6a 0b be 49 73 aa 3d cd 50 d3 bd 2f 73 dc 3d
       -0.13614799 0.0832277 -0.10318146 0.10764157
000240 a7 0a aa 3d 6b 61 f7 3d 19 45 4f 3e 45 ed 9a 3c
       0.08302813 0.12079128 0.20241202 0.018911967
000250 53 8b e5 3d fe 23 03 be e4 a8 2b 3e cf 2f 1e 3e
       0.112082146 -0.12806699 0.16763645 0.15447925
000260 6b 3b 55 3e 79 b6 14 3e 77 23 ff bd 71 ec 99 bd
       0.20823447 0.14522733 -0.12457936 -0.07515801
000270 64 39 c0 ba 11 48 90 bd 1a 0f 52 3e e7 3f 06 be
       -0.0014665541 -0.070449956 0.20513573 -0.13110314
000280 c0 cf 66 3e 8a 6e 9a bd df a9 fd bd 65 4f 35 3e
       0.22540188 -0.07540615 -0.12385916 0.17706068
000290 31 53 8d bd a2 14 aa bd e1 29 24 bc 1d 3f 19 3e
       -0.06900633 -0.08304717 -0.01001975 0.14965482
0002a0 9f dc 85 bd 22 e3 e3 3d b4 84 f5 bd ab 8e 2c be
       -0.06536221 0.111273065 -0.11988202 -0.16851299
0002b0 4c b2 ce 3d 29 53 04 3e e5 52 51 3e 81 af 21 be
       0.10092601 0.12922348 0.20441778 -0.15789606
0002c0 ba 96 07 be ea 86 b3 bc 37 25 ad 3d 47 6f 13 bd
       -0.13241091 -0.021914918 0.08454364 -0.035994794
0002d0 0f 1e ad bd 67 df 3b 3e a6 54 45 3e 52 af 31 3c
       -0.08452999 0.1834694 0.19270572 0.010845022
0002e0 6f 60 d6 3d 7e 9b 72 bd c5 de 3d 3e e7 bb 91 bc
       0.10467612 -0.05923032 0.18542011 -0.017789794
0002f0 8d b8 f4 3c 2e 60 47 3e 21 c2 93 3d 23 11 df 3d
       0.029873157 0.19470283 0.072147615 0.108919404
000300 1e f9 f6 bd 4c 83 e7 bd 46 dd 3a be 21 47 b2 3d
       -0.12059234 -0.1130434 -0.18248472 0.08704973
000310 54 b6 78 bb 72 1d e2 3d 21 04 53 3e 0f 9c 13 3e
       -0.0037950473 0.110407725 0.20607044 0.14415
000320 f4 58 ea bd 78 06 c8 bd 6d e4 4f be 93 21 2b be
       -0.11442748 -0.09766859 -0.20301981 -0.16712026
000330 7b ce d5 bd 81 75 64 3e a8 36 32 bd 90 fa e0 bc
       -0.10439774 0.22310449 -0.043509156 -0.027463228
000340 25 9b 3d 3d fc a9 2a 3e ee 93 4a 3c 42 c4 11 3e
       0.046290535 0.16666406 0.012364371 0.14235023
000350 09 fa 3d 3d c5 be dd 3d 7d 5d 29 be 86 f3 1c be
       0.04638103 0.10827402 -0.16539569 -0.15327272
000360 f8 67 2f 3d b5 05 a4 3d ac 5e 13 be 4a 48 46 3e
       0.04282376 0.08008901 -0.14391583 0.19363514
000370 9c 78 85 3d eb 8d 3b 3e 34 d2 3d 3e c9 21 85 3c
       0.06517145 0.18315856 0.18537217 0.016251462
000380 47 5e 3e be ab 9c 3c be a7 d3 32 3e 52 b8 d8 bd
       -0.18590651 -0.18419139 0.17463551 -0.10582031
000390 fa a1 15 be e6 e5 23 be 47 68 1a bd 8a d9 a9 bd
       -0.1461257 -0.16005668 -0.037697103 -0.082934454
0003a0 91 e9 a5 3d 9d 26 1f 3e 47 51 25 3e 50 94 76 3d
       0.0810119 0.15542074 0.16144286 0.060200036
0003b0 98 b7 ef bd a3 fb d8 bd 13 7e 38 be a3 08 2b be
       -0.117049396 -0.10594871 -0.18016843 -0.16702513
0003c0 bf 20 1a be 46 86 08 bd cb ab 1b 3e 1e 45 f1 bd
       -0.15051554 -0.033331178 0.15202253 -0.11780761
0003d0 48 bd 48 3e 3b c8 4c be 27 a8 3d 3d 33 d5 2d be
       0.19603455 -0.19998257 0.04630294 -0.1697586
0003e0 7a 04 ee bd 5f 2c fe bc 59 90 95 3d d0 3d 5f 3e
       -0.116219476 -0.031027017 0.07302923 0.21800923
0003f0 fb fc 36 bd c0 e5 39 3e 91 df de 3d 66 59 15 3e
       -0.044674855 0.18154049 0.10882486 0.14584884

arith.constant6 f4 [5]
000000 6c 89 eb 3c 91 44 75 bd 08 c1 2a bd 63 12 27 3d
       0.028752051 -0.059879843 -0.041687995 0.04078902
000010 d4 93 5c 3d
       0.053851917

arith.constant7 f4 [64]
000000 ed 49 1d 3d dd 82 fe bb 98 a1 84 3d 0f cc 8a 3a
       0.03840058 -0.007767065 0.06476134 0.0010589379
000010 f6 45 12 3c 0a f0 02 bc 65 28 8b 3c b0 33 8d 3c
       0.008927813 -0.0079918 0.016987035 0.01723656
000020 d9 e7 76 bc b1 f7 78 3d f9 33 b4 bb c8 20 1f bc
       -0.015069925 0.060783092 -0.0054993597 -0.0097124055
000030 20 e2 94 bb d1 28 5b 3b 4e 79 14 bb 02 06 9a bc
       -0.0045435578 0.0033441077 -0.002265531 -0.018801693
000040 cc 44 27 3c ac a8 8b bb 64 19 0d bd 31 79 d9 3c
       0.010209274 -0.0042620506 -0.034448043 0.026547046
000050 15 c8 bb 3a b8 1f 85 bc cf b4 22 3c 7f 97 ba bb
       0.0014326597 -0.016250476 0.009930803 -0.0056943293
000060 d5 72 30 3d d0 e5 4c bc ff a8 7c bc 94 bc 2e 3c
       0.043078262 -0.012505963 -0.015421151 0.010665078
000070 be 91 53 bb 5f e1 52 3d 4f 78 81 bc 39 8c 1b 3c
       -0.0032282914 0.051484462 -0.015804438 0.009493881
000080 b8 89 1f 3c 65 2a d7 bb 36 e3 1c bc e6 c7 89 3a
       0.009737425 -0.006566333 -0.009575656 0.0010511845
000090 8e b7 77 bc c1 6a c8 3b 49 58 32 bc 6c b8 e8 39
       -0.015119446 0.0061162417 -0.010885307 0.00044387893
0000a0 88 98 75 3d 30 4f 48 b9 b4 30 d5 3c c8 2a 2b 3d
       0.05995992 -0.00019102986 0.0260242 0.041788846
0000b0 f9 74 31 bc c9 35 05 3b 48 5e 9b 3c 44 32 32 3b
       -0.010831111 0.0020326248 0.018965855 0.0027190605
0000c0 b0 20 05 bc 38 5f cf bc a3 51 9b bc a8 b8 4b bc
       -0.008125469 -0.025313959 -0.018959826 -0.012434162
0000d0 9b 61 0d 3d 54 07 5b bc 95 86 a7 3c d4 e1 9c bc
       0.034516912 -0.013368446 0.020449916 -0.019150652
0000e0 06 dc 40 3d 8e c4 84 bc f3 3d 0e 3d 76 0e a8 bc
       0.04708483 -0.016207006 0.034727048 -0.020514708
0000f0 96 48 a8 3c c1 5b 94 3d 2e 3a f5 bc 10 74 50 3c
       0.020542424 0.07244063 -0.029934969 0.012722984

arith.constant8 f4 [32]
000000 aa 8b 24 3c 30 3b 60 bc ed 5b 3c bc d0 c1 9e bc
       0.010043064 -0.013685986 -0.011496526 -0.019379526
000010 00 00 00 00 dd 9b 61 3d 32 b8 b1 bc f4 c8 8c bc
       0.0 0.055080283 -0.021694276 -0.017185666
000020 8d c5 c4 bb df 50 8d 3c fb 89 46 3c 5e da d5 bc
       -0.006004995 0.017250476 0.012117858 -0.026105102
000030 2e 09 87 3d b7 f2 16 3b 82 36 d5 bb a7 9a 9f bc
       0.06593548 0.0023032853 -0.006506742 -0.019482924
000040 e2 91 a8 3c 6d 17 ae bb 99 58 70 bc 56 df 35 3c
       0.020577375 -0.005312851 -0.014669561 0.011100611
000050 de 9b de bc 70 8b c9 3c 00 00 00 00 e3 b1 a9 bb
       -0.027173933 0.024602622 0.0 -0.0051786765
000060 7f be 88 3d 7b f0 89 3c 58 68 9e ba 00 00 00 00
       0.06676959 0.016838303 -0.001208554 0.0
000070 50 fd 15 bd 44 41 74 3d 8f f0 8d 3c 06 68 86 3b
       -0.03661853 0.059632555 0.017326621 0.004101756

arith.constant22 f4 [256, 63]
000000 63 3f ed bd 3b 8c 71 bd 25 c2 de 3d 1f db c9 3d
       -0.11584356 -0.058971625 0.10876874 0.09856247
000010 d6 8b 79 bd ca 20 c1 bd 2b 0b 9a bd 85 ed 8f 3d
       -0.060924374 -0.09430082 -0.07521661 0.07027725
000020 e6 58 d9 3c db 8b 5e bc 04 08 51 bc ee 58 d5 bc
       0.026531648 -0.013583149 -0.012758259 -0.026043382
000030 71 da e4 3d d4 79 8c 3c a3 a1 eb 3d b7 98 7d bd
       0.11174477 0.017147936 0.11505439 -0.06191322
000040 05 e3 d2 bd a0 be 86 bd 20 05 78 bd 54 5c 78 bc
       -0.10297207 -0.065793276 -0.060551763 -0.0151587315
000050 47 c1 bd bd 8a 9c 61 bd 72 81 dd 3b 4d d5 d7 bd
       -0.0926538 -0.055080928 0.006759816 -0.10538731
000060 d6 90 73 bd 84 0d 4d bc c3 4b ca bb 13 49 df 3c
       -0.0594643 -0.012515429 -0.0061735823 0.027256524
000070 4c 50 a6 3d f4 4a 14 3e ad 96 1a 3d d5 7a 8d bd
       0.08120784 0.14481717 0.037741352 -0.06908194
000080 14 b5 98 3d ba a8 a1 bc a0 eb e0 3d e5 b6 a1 3c
       0.07456413 -0.019733775 0.10982442 0.019740531
000090 89 8f bd 3d 3e 77 03 be a1 0f fe 3d 1e 55 cc 3c
       0.09255893 -0.12838456 0.12405325 0.02494293
0000a0 77 3c 6f bd ad 34 a7 bd b0 e1 8b 3b 3c 15 d0 3d
       -0.058407273 -0.08164344 0.0042688474 0.101603
0000b0 59 43 e6 3c d6 7e f6 bd 2d 2d d5 3c 75 9b 8c bd
       0.028108286 -0.12035911 0.026022518 -0.068655886
0000c0 1d 7b 9b bc f9 33 03 3d 4e 04 33 3d 1f 72 ae 3d
       -0.018979603 0.032031987 0.043705277 0.085178606
0000d0 c9 57 bf bd 4f ec 13 3e ff 3f 31 3c 03 06 89 bd
       -0.093429156 0.14445613 0.0108184805 -0.066906
0000e0 bd cd b6 bb 8a 8e b7 3d 30 92 ec b9 d9 34 6a 3d
       -0.005578725 0.08962734 -0.00045122346 0.057179306
0000f0 dd 01 0c 3e e6 b9 ef 3d 88 32 7c 3d 52 e1 a3 3d
       0.13672586 0.11705379 0.061571628 0.08001961
000100 4e 5f 50 bd 1e 66 06 3e f0 a3 a0 bd b8 e6 11 3d
       -0.05087214 0.13124892 -0.078437686 0.03562042
000110 fe d5 b6 3d 32 d8 12 bd 2e a2 8e 3d 54 36 8f 3d
       0.089275345 -0.03585071 0.06964527 0.06992784
000120 c0 bd cf bd 54 0e 9e bc a3 bd 07 be f0 8e 10 3c
       -0.10143614 -0.019293942 -0.13255934 0.008823141
000130 80 e9 8c 3b e7 aa b2 bd 34 36 a9 3d f7 ce 0a be
       0.0043002963 -0.08724003 0.082622916 -0.13555513
000140 7c f5 24 3d 00 ee 31 3d 13 b9 8a bd 18 68 36 bd
       0.040273175 0.043439865 -0.06773581 -0.044532865
000150 d4 9d c4 bd 60 5a af bb 50 95 ce 3d 64 44 ea bc
       -0.09600416 -0.0053513497 0.10087073 -0.028597064
000160 34 b0 0a 3e 64 7c 41 bd 90 36 35 3d 90 47 69 bd
       0.13543779 -0.04723777 0.044241488 -0.056953013
000170 98 d4 aa 3d 84 22 db 3d 94 d5 74 bd d3 a3 ea bd
       0.0834133 0.10699943 -0.059773996 -0.11457028
000180 74 fa c6 bd 60 19 ce bb c1 9a e0 bd dc 77 c4 3d
       -0.09715739 -0.006289646 -0.10967017 0.09593174
000190 aa a5 8c 3d 38 58 c4 3c 27 54 ee bd bc 57 e3 3d
       0.068675354 0.023967847 -0.116371445 0.111007184
0001a0 91 dd 8c bd 3e e9 5d bd aa ab d9 3d 70 f3 78 3c
       -0.06878198 -0.054177515 0.106284454 0.015194759
0001b0 7c 5d 5d 3d 94 12 bc bc 08 9a 7b 3d a0 82 7c 3d
       0.05404423 -0.022958077 0.061426193 0.06164801
0001c0 59 33 f4 bd 02 0d 37 bd f4 3d c5 bc f0 05 95 3c
       -0.11923856 -0.04469014 -0.024077393 0.018191308
0001d0 b8 7e 95 3d 7a c4 d8 3d ea 28 ac bd 50 f3 c9 bd
       0.0729956 0.1058435 -0.08406241 -0.09860861
0001e0 96 eb 18 bd 68 13 90 3c cc 2a 96 bc c0 4d b0 3d
       -0.037334047 0.017587379 -0.018330954 0.0860858
0001f0 15 8b 01 be 30 73 cb bc 76 96 19 bd ea 73 ed bd
       -0.12650712 -0.0248352 -0.037497006 -0.115943745
000200 9e 3a dd bd f4 bd 28 3d 85 77 ab 3c 65 66 f3 bb
       -0.10802196 0.04119678 0.020931015 -0.007427978
000210 08 8b 43 3c 0b 35 12 3c b6 07 a2 bd 22 e9 b3 bd
       0.011935003 0.008923779 -0.07911627 -0.08784701
000220 43 fb d8 bd 02 c9 f3 bd b4 bf 06 be 99 f3 c5 bd
       -0.10594799 -0.119035736 -0.13159066 -0.09665603
000230 fc 96 6a bb 88 13 04 3e bf 04 8b 3c ac b9 a1 bd
       -0.003579556 0.12898076 0.016970037 -0.07896742
000240 4f 9f f7 3d 81 32 9d bd 66 6e 01 3e 94 bd c6 3d
       0.120909326 -0.076756485 0.1263977 0.09704128
000250 f4 c6 e5 3d 0d 5c 1f bd 12 a9 85 3d 46 5d 99 3d
       0.11219588 -0.038906146 0.06526388 0.074884936
000260 1b c3 eb 3d c4 5c c1 bd 76 5b 27 bd c7 d3 e5 3d
       0.11511823 -0.09441522 -0.04085871 0.11222034
000270 e4 7d cf 3d 2f e7 b9 bd 07 65 b9 3d a3 52 ab bd
       0.101314336 -0.09077298 0.090524726 -0.08365371
000280 9f 9e 0a 3e 95 ad e1 3d 82 b6 c4 3d a1 45 4e bd
       0.13537072 0.11019436 0.09605123 -0.050359372
000290 e2 2e 58 bc c7 f4 14 bb 7e 25 d4 3d 02 e8 c4 bd
       -0.0131947715 -0.0022728906 0.103587136 -0.096145645
0002a0 ba de 45 bd d8 ec e7 bd cf 38 3e 3d d6 dc c2 bd
       -0.04830811 -0.11324471 0.046440896 -0.09514777
0002b0 5b 98 13 3d a6 43 04 be 82 ea a3 bd 8b 5b 02 be
       0.03603397 -0.12916431 -0.08003713 -0.12730233
0002c0 dd fc e8 3d d1 9f 35 bd 5c b0 bc bd ab c0 3e 3d
       0.11376355 -0.044341866 -0.092133254 0.04657046
0002d0 92 0b 0c be 9c 78 6f 3d 3a 05 98 3c b4 bb 36 bd
       -0.13676289 0.05846463 0.01855718 -0.0446126
0002e0 32 60 08 be 7b 92 09 3e 5f ab bb bd 05 b4 ed 3d
       -0.13317946 0.13434784 -0.09163546 0.116066016
0002f0 14 f4 07 3e 10 25 2a 3d e3 7a c3 3c d1 66 36 3c
       0.13276702 0.04153925 0.023862308 0.011132912
000300 81 83 f6 bd 96 ac 2c 3d 38 b6 0e 3e 4e d2 f1 3d
       -0.12036801 0.04215678 0.13936698 0.118076906
000310 03 2b 22 3d ab 45 f3 bd 04 e6 30 3d 66 d9 6b 3d
       0.0395918 -0.118785225 0.04318811 0.057580374
000320 b1 fe 8a 3c 23 77 6e bd 69 44 87 bb 43 54 b5 bd
       0.01696715 -0.058219086 -0.004128028 -0.08853962
000330 d0 f0 e1 3d 35 eb 8c bd 60 52 c7 3d c8 da af bc
       0.110322595 -0.068808 0.09732509 -0.021466628
000340 4f 77 0a 3d b6 8d 10 bd b3 8b 1a bd 57 0d 09 be
       0.033805188 -0.035291396 -0.037730884 -0.13383995
000350 7b 67 97 bc ee 33 f8 3d 35 f4 c2 bd 13 2d 95 3d
       -0.01848196 0.1211928 -0.09519235 0.07283988
000360 41 b3 47 3d 63 03 1c 3c 56 42 95 3d 83 a9 de 3b
       0.048754934 0.009522292 0.07288043 0.0067951097
000370 94 fa 3a bd 5f 1b 18 3b 45 7d 55 3d 23 76 71 3c
       -0.045649126 0.0023209674 0.05212142 0.014737639
000380 ee 14 f3 3d ec d9 ff 3d 20 58 47 bd 41 c2 3f bd
       0.118692264 0.12492737 -0.048668027 -0.046816114
000390 ce ce 91 3d 03 f7 0d be 8f 35 69 3d 37 57 bd bd
       0.07119523 -0.13863759 0.056935843 -0.092451505
0003a0 76 84 6a bd d7 73 9d 3d b4 b0 e7 bd c9 9a 0f be
       -0.05725523 0.0768811 -0.11313 -0.1402389
0003b0 c5 67 0c 3d f9 81 8d bc 09 25 d1 bd 8e da 60 bd
       0.03427865 -0.01727389 -0.10212142 -0.05489593
0003c0 b5 53 03 be b9 5d 5a 3d 6a a7 5f bd 0c d9 f4 bd
       -0.128249 0.053312037 -0.054603018 -0.11955461
0003d0 d3 7c 14 be 44 a9 aa 3c 6d f7 54 3d 1a 54 40 3d
       -0.14500742 0.020832665 0.051993776 0.046955206
0003e0 a5 d1 0e bd 0f 75 e5 bd db bc ab bd b0 9f ae bc
       -0.0348679 -0.11203968 -0.08385631 -0.02131638
0003f0 4e f6 3c bd e6 f8 1e bb a7 f7 07 3e 66 70 97 3b
       -0.046133332 -0.0024257242 0.13278066 0.0046215532

arith.constant23 f4 [256, 64]
000000 f9 97 89 bc d8 e2 6f bd ab bd a4 bd a5 8b 45 bb
       -0.016796099 -0.058565944 -0.08043989 -0.003014305
000010 eb dd cf bd 53 c9 b8 bd c1 1c b9 bd f9 07 ce bc
       -0.10149749 -0.090227745 -0.090386875 -0.025150286
000020 c4 51 cf bc a5 ea a0 3c 96 b6 29 bd 28 a0 a3 3d
       -0.025307544 0.019643137 -0.041433893 0.07989532
000030 ad cd ba 3d b4 a2 3c bc 4a 95 ce 3c 6d 72 b3 bd
       0.09121261 -0.011513401 0.025217671 -0.08762059
000040 80 19 b4 3d 23 b0 84 bc c0 5f 91 3d cf 2f af 3c
       0.08793926 -0.01619727 0.07098341 0.021385102
000050 7a fe d4 3d 9d e7 37 3d f0 20 a2 bc 93 53 ce 3c
       0.104001 0.044898618 -0.019791096 0.025186336
000060 eb e1 52 3d bc 42 17 3d 11 46 75 3d 50 da 73 3b
       0.051484983 0.036928877 0.059881274 0.0037208982
000070 d9 8c 20 bd 69 a2 30 bc 62 f9 cf 3d db 6c 04 be
       -0.039196823 -0.010780909 0.10154988 -0.1293215
000080 cd 76 1e 3c 6b fb b1 3d 1b 90 d0 3c ad 77 5e 3c
       0.009671879 0.08690532 0.02545934 0.013578338
000090 1b 18 21 bd f7 e2 f8 3d 95 34 da bc df cd 1e bc
       -0.03932963 0.12152665 -0.026636401 -0.009692638
0000a0 d8 b6 5c 3b 4f 12 49 3d 37 52 65 3b 05 d7 5d 3d
       0.003367832 0.049089726 0.003499163 0.054160137
0000b0 bf 85 4c bb 20 83 33 ba c2 2f 6d 3d 11 8b 55 3b
       -0.0031207649 -0.0006847847 0.057906874 0.003258411
0000c0 67 dd 2b bd d1 fe 9b 3b ff 22 df 3c f1 ce 5c 3d
       -0.041959193 0.004760601 0.027238367 0.053908292
0000d0 f5 0c fd bd 4a 08 f8 3c 57 23 21 bd 74 e4 78 bd
       -0.12355987 0.03027739 -0.039340343 -0.060764745
0000e0 66 cf c5 bd 52 ef b1 3d 96 15 9a bd de 23 9a 3d
       -0.09658699 0.08688225 -0.075236484 0.075263724
0000f0 1a 46 e5 bd 32 e7 80 3d ca 4c 94 bd 7c e3 4f 3c
       -0.111950114 0.06294097 -0.07241209 0.012688514
000100 89 4f a9 3d 60 3a 80 3d 53 5a 0a 3d 6a da 26 bd
       0.08267123 0.06261134 0.033777546 -0.04073564
000110 62 f9 e5 3d 06 55 52 bd 16 44 8f 3c 4c 02 20 bc
       0.112292066 -0.051350616 0.01748852 -0.009766173
000120 1e ef c3 3c f1 0a 0b 3d d8 88 6f 3d c7 1f d7 bd
       0.02391773 0.03394598 0.058480114 -0.10504108
000130 74 fc 69 bd b0 e4 85 bd e5 51 81 bd c2 0c 86 3c
       -0.057125524 -0.06537759 -0.06314448 0.016363505
000140 c8 76 1d bb bc bd 82 3d 2c 0d 9c bd 86 67 b1 3b
       -0.0024027098 0.06383845 -0.076197 0.0054139523
000150 fa 62 2e bd 93 f3 c9 3d 15 1d 50 bd 08 f3 22 3d
       -0.04257486 0.09860911 -0.050808985 0.039782554
000160 28 41 c6 3c 5b 7d d0 bc 40 0d 7a 3d b2 dd be 3b
       0.02420099 -0.0254504 0.061047792 0.005824768
000170 74 39 02 bd 15 c5 7e bd e1 b8 91 bc 66 a3 8c bb
       -0.031793073 -0.06219967 -0.017788352 -0.0042919395
000180 b9 09 b0 3d e5 58 84 bd 1a cc d6 3d b2 6a 2a 3d
       0.085956044 -0.06462268 0.10488148 0.04160566
000190 97 2c 99 3d 70 a6 a2 bd c1 bc 91 bb 75 af 88 bd
       0.07479208 -0.07941902 -0.00444755 -0.06674091
0001a0 b4 19 b2 bd 02 6f 5a bc 13 ed 9c 3d f5 70 99 bd
       -0.08696309 -0.01333213 0.07662406 -0.07492248
0001b0 21 00 b0 3d 0c 2a 94 3d 7a ad 8c bd 1a 95 bf 3d
       0.085937746 0.07234582 -0.068690255 0.09354611
0001c0 80 68 4e 3c f8 c9 d7 3d 78 a2 56 3c 77 00 a6 bd
       0.012598157 0.10536569 0.013100259 -0.081055574
0001d0 7c 57 13 3c 48 bd a4 3d 81 6d 97 bd ac 04 a6 3d
       0.008993026 0.08043915 -0.07393933 0.0810636
0001e0 bd 82 4d bd 85 d5 9a bc 4a 2b 78 3b e3 75 b9 bd
       -0.05017351 -0.018900642 0.00378676 -0.09055688
0001f0 8b a8 68 3d 7f cb f2 3c 7f 47 1a 3d b6 d8 c6 3c
       0.05680136 0.02963805 0.03766584 0.024273258
000200 93 6a 54 bd 0c 64 0f be 9f c1 ab 3b fe 71 3f bd
       -0.05185945 -0.14003009 0.0052415873 -0.04673957
000210 5d dd d7 3c fb b7 cc 3d fc bb 37 3d 6d 16 f6 bd
       0.026350671 0.09996029 0.04485701 -0.12015996
000220 46 1f 1f bd 81 07 b6 bd 75 f0 19 3d d1 03 d0 bb
       -0.038848184 -0.0888815 0.037582833 -0.006348111
000230 15 a1 c0 3d 36 bf 9e bc e6 0e d3 bb b0 ee 97 bc
       0.09405724 -0.019378286 -0.006440985 -0.018546432
000240 8d b8 81 3d 99 ec 66 3d 00 55 14 3b 89 76 b2 bd
       0.063340284 0.05637798 0.0022633672 -0.08714015
000250 25 44 ac bc 10 c4 20 bd bd 14 ff bc 7f f8 ce bd
       -0.021028588 -0.03924948 -0.031137818 -0.101059906
000260 54 0a 2a 3b 7b d9 7e bd 06 4e 51 bc 5c f3 3f 3d
       0.0025946097 -0.062219124 -0.01277495 0.046862945
000270 bb 5d 87 3d a0 00 17 bd c8 76 83 3c cf 62 32 bd
       0.066096745 -0.03686583 0.01604785 -0.043551262
000280 63 8c 0b 3c 88 0e de 3c b7 fa be bc 92 68 1c 3d
       0.0085173575 0.027106538 -0.02331291 0.038185664
000290 d0 a3 b5 bd f8 0c 86 3d 19 b8 12 3d 07 ff ff 3d
       -0.088691354 0.06545442 0.0358201 0.124998145
0002a0 a8 63 9a 3d fd 12 4f bd a8 35 0e 3d ff 58 b5 3d
       0.07538539 -0.050555218 0.03471914 0.08854865
0002b0 6b d7 1c bc 30 8d d6 3d 8f f2 94 bd 5e 27 8d bc
       -0.009572844 0.10476148 -0.07272827 -0.017230686
0002c0 02 9c 42 bd ec 03 32 3d 53 50 3e bd 17 d6 52 ba
       -0.047512062 0.04346077 -0.046463322 -0.0008042766
0002d0 4e 18 4e bd f6 8c d9 bd 34 9b c4 3d 82 f2 df 3d
       -0.050316148 -0.10622589 0.09599915 0.109349266
0002e0 01 1e 3a 3d 23 f7 bc 3c c8 e3 0b bd f4 62 a1 bd
       0.04543877 0.023067063 -0.034152776 -0.07880202
0002f0 b0 42 20 3d 1e 8a 69 3d 73 e6 07 3e 45 d2 cf 3d
       0.0391261 0.057016484 0.13271503 0.101475276
000300 9c 92 93 3d 86 74 cd 3c f1 cd 7a 3d 84 75 0c be
       0.07205698 0.025079977 0.061231557 -0.13716704
000310 f9 fa e1 3d 7d e2 dc 3a 8c 02 dd 3d 59 b4 10 bd
       0.11034197 0.0016852167 0.107915014 -0.035328243
000320 52 b3 ac bd 70 6a d7 3c 7e 72 f2 bc 9a e7 ac 3d
       -0.0843264 0.02629587 -0.02959561 0.08442612
000330 9f 81 6c bc 5f 35 6e 3c 15 fc 89 3b 38 a9 9c bc
       -0.014435201 0.014539092 0.0042109587 -0.019123659
000340 43 74 9a 3b 06 55 16 39 81 a1 81 bd 26 e2 8b bd
       0.0047135665 0.00014336788 -0.063296326 -0.06830244
000350 d4 70 aa 3d 64 d6 1b 3d e0 40 41 bc ff 63 23 3d
       0.083223015 0.038046256 -0.011795253 0.039890286
000360 6f 7c 8a 3d 1b 4e b3 3b 2b b6 16 bd 14 b1 ab 3c
       0.06762015 0.0054719574 -0.036794823 0.02095846
000370 c4 95 03 3d 05 65 a8 bd 10 de 88 bb ad d2 0f 3c
       0.03212525 -0.08222393 -0.0041768625 0.008778256
000380 e1 a3 72 3c 26 da f0 bc b7 b5 0b bc 6d 36 5b bd
       0.01480958 -0.029400896 -0.008527211 -0.0535187
000390 b7 2a f3 bd 60 b9 69 bc cc e6 d3 3c 8b 09 bf bd
       -0.118733816 -0.014265388 0.025866888 -0.09327992
0003a0 16 73 3a bc 49 7e 4a bd d8 9c 74 3d 3b ec 08 3d
       -0.011379978 -0.04943684 0.05971989 0.033428412
0003b0 3f e7 de bc b2 cf 2b bd ce 19 08 3e 7b ea d8 3d
       -0.027209876 -0.04194612 0.13291094 0.105915986
0003c0 40 f0 46 3c df 00 c9 bd e6 69 1f bd dd c1 87 bd
       0.012142241 -0.09814619 -0.038919352 -0.06628773
0003d0 09 e7 b1 3d 21 ba 83 3d 94 cd 1a bb c8 35 8c 3a
       0.086866446 0.06431986 -0.002362107 0.001069718
0003e0 47 77 30 3e e3 a5 2f be 32 ac a6 3c b2 67 5a bd
       0.17233 -0.17153125 0.020345781 -0.053321548
0003f0 70 d7 02 bd cc 6d ef 3d 12 e5 be 3d eb cf d9 3d
       -0.03194374 0.11690864 0.093210354 0.1063536

sequential_1/lstm_1/while/lstm_cell_1/add_1/ReadVariableOp f4 [256]
000000 86 a6 3b 3c ff 12 1e 9a ab 17 4f b9 93 f1 1e bc
       0.0114532765 -3.268898e-23 -0.00019749875 -0.0097011505
000010 be c9 be b9 09 25 2c bc 7a 42 19 bc eb e5 bf bb
       -0.00036389934 -0.010506877 -0.009354228 -0.005856266
000020 63 fc 72 b1 07 59 59 3b 8f db 89 bb 64 c9 d1 3b
       -3.53591e-09 0.0033164637 -0.0042070816 0.0064021815
000030 f5 71 3c 3c f0 e5 6e 3c d3 59 fc bb b4 88 c3 3b
       0.011501779 0.014581189 -0.0077011376 0.005967224
000040 27 cc ef 3c 47 13 1f bc 27 64 f8 3b 86 d8 fb bb
       0.029272152 -0.009709186 0.0075802985 -0.0076857237
000050 00 00 00 00 9e fa 50 3b 38 c0 a4 3b 1c dd 07 3c
       0.0 0.003188766 0.005027797 0.008292463
000060 9c 40 9d ba c9 a9 44 bc d8 30 bc 37 fa b2 ad 3b
       -0.0011997405 -0.012003371 2.2434091e-05 0.0053008767
000070 30 43 5b 3b a7 24 b6 3b d6 ab 8e 3c 83 d2 5e 3c
       0.0033456795 0.0055585685 0.017415922 0.013599995
000080 0e fb 73 3b 21 ad 3a ba f1 b4 68 bb 00 00 00 00
       0.0037228498 -0.0007121135 -0.003550824 0.0
000090 4c 47 7a 3c dc ec a9 bb 78 3e b2 bb 0a 91 fa b9
       0.015275788 -0.0051857065 -0.0054395758 -0.00047791778
0000a0 4a da 09 bb d3 4f 1f 3c 65 e6 61 bb f0 8f 96 3b
       -0.0021034651 0.009723621 -0.0034469601 0.0045947954
0000b0 0e 2a 5e bc 56 e2 f7 bb 00 00 00 00 9d 35 7b 3c
       -0.013559831 -0.007564823 0.0 0.015332607
0000c0 76 2b 4d 9c 95 86 21 bc 9f e0 d2 bb bb 35 33 bc
       -6.788498e-22 -0.009858747 -0.0064354683 -0.010938103
0000d0 cb 86 25 39 65 90 ba 3b cc 5b 1b bb 90 60 b9 b3
       0.0001578584 0.0056934827 -0.0023705838 -8.6322984e-08
0000e0 79 94 04 3d 62 49 03 bc 2d f2 37 3c a1 f9 b6 bb
       0.032368157 -0.008013101 0.011227173 -0.0055839573
0000f0 c5 f4 ad 3b b1 c5 0e bb 60 0b af bb e6 e8 6d bb
       0.00530872 -0.0021785314 -0.005341932 -0.0036302148
000100 69 32 81 3f 00 00 80 3f fd e0 7f 3f 98 05 7f 3f
       1.0093509 1.0 0.9995268 0.9961791
000110 a2 c0 7f 3f 09 e7 7c 3f dc 7e 7d 3f 0c 4c 7e 3f
       0.9990331 0.9879003 0.990217 0.9933479
000120 00 00 80 3f 66 ae 80 3f f8 cb 7e 3f 27 37 81 3f
       1.0 1.0053222 0.9952998 1.0094956
000130 17 dc 81 3f 32 0b 82 3f e6 31 7e 3f c6 33 81 3f
       1.0145291 1.0159667 0.9929489 1.0093925
000140 e9 e9 83 3f 4c bb 7d 3f f6 67 80 3f f2 e6 7d 3f
       1.0305759 0.9911392 1.0031726 0.9918052
000150 00 00 80 3f 7e b9 80 3f 1a d6 80 3f 0d fc 80 3f
       1.0 1.0056608 1.0065339 1.007692
000160 de ad 7f 3f 67 e6 7c 3f 91 1f 80 3f 91 02 81 3f
       0.99874675 0.98789066 1.0009633 1.0078908
000170 8c 46 80 3f 9e c1 80 3f 45 23 82 3f a1 2b 82 3f
       1.0021529 1.0059087 1.0167013 1.0169564
000180 0c a3 80 3f 93 f0 7f 3f 32 f6 7e 3f 00 00 80 3f
       1.0049758 0.9997646 0.99594414 1.0
000190 a4 da 81 3f 56 c9 7e 3f a4 9c 7e 3f 39 fc 7f 3f
       1.0144849 0.99525964 0.99457765 0.99994236
0001a0 59 ba 7f 3f b0 1a 81 3f df 2c 7f 3f 8b b0 80 3f
       0.9989372 1.0086269 0.9967784 1.0053877
0001b0 18 8d 7c 3f 76 e4 7e 3f 00 00 80 3f 4b 24 82 3f
       0.9865279 0.99567354 1.0 1.0167326
0001c0 00 00 80 3f d5 00 7e 3f 18 42 7e 3f e0 77 7d 3f
       1.0 0.9922002 0.993196 0.9901104
0001d0 12 4b 80 3f f1 cb 80 3f dc f2 7e 3f 00 00 80 3f
       1.002291 1.0062238 0.99589324 1.0
0001e0 0b c2 84 3f 39 19 7e 3f 20 bc 81 3f fc d5 7e 3f
       1.0371717 0.99257237 1.0135536 0.99545264
0001f0 ee a7 80 3f c2 db 7f 3f 9f 9f 7e 3f 26 77 7f 3f
       1.0051248 0.999447 0.9946231 0.9979118
000200 c9 c3 8d bb 9e cb 82 9d 8d 80 9a bb d7 30 59 bc
       -0.004326318 -3.462125e-21 -0.0047150315 -0.013256273
000210 00 4e 9a bb 13 e0 39 bc 91 b7 e1 bb 40 3e 17 bc
       -0.0047090054 -0.011344927 -0.006888338 -0.00923115
000220 dc f3 87 b3 c0 40 cb 3a 1a 8e ca bb f9 45 6f ba
       -6.330785e-08 0.0015506968 -0.0061814906 -0.0009127553
000230 78 49 84 39 5f 86 ad 3b 1d f8 8e bb 48 50 2a 3b
       0.0002523174 0.0052955593 -0.0043630735 0.0025987793
000240 50 e0 9c 3b ab 67 72 bc 65 7a 86 bb e3 da 0b bc
       0.0047874823 -0.014795224 -0.004103946 -0.008536073
000250 00 00 00 00 21 81 2b bb 14 bc 89 39 8c 2e 8b bb
       0.0 -0.0026169496 0.00026270805 -0.004247492
000260 0b c6 5f 3a 13 1b 7d bc e7 e9 50 bc 16 54 1d 3b
       0.00085362856 -0.0154483495 -0.012751079 0.0024006418
000270 cf c4 9a 3a c9 a9 31 bb 6f 65 c3 3b e2 b2 fd 39
       0.0011807921 -0.0027109256 0.0059630196 0.00048389198
000280 bd 97 26 39 ff 65 15 bb 2e 0b b5 3b 00 00 00 00
       0.0001588752 -0.002279639 0.0055250144 0.0
000290 9c 97 a5 3b 73 b3 89 bb d3 44 b3 bb 9d 01 84 ba
       0.0050534736 -0.0042023 -0.005470851 -0.0010071282
0002a0 74 cf 9b ba d7 37 b2 ba 73 53 00 bb 2e 0a bf bb
       -0.0011887387 -0.0013596964 -0.001958099 -0.005830071
0002b0 60 bc 82 bb 71 1b 34 bc 00 00 00 00 9a 1d 1d 3c
       -0.003989741 -0.010992871 0.0 0.009589577
0002c0 6a 6b b4 a0 1a 1b 78 bc 56 24 17 bc 71 0c 03 bc
       -3.0564267e-19 -0.01514318 -0.009224972 -0.007998572
0002d0 09 53 17 3b 3b 9d be 3a d3 5d 14 bb 52 f3 dc b6
       0.0023090264 0.0014542708 -0.0022638931 -6.584837e-06
0002e0 b8 78 82 3c c4 bd 30 bc fa 93 8e 3b 78 e3 06 ba
       0.015926704 -0.010787431 0.0043511363 -0.000514559
0002f0 75 3e b3 3b 80 09 bd bb 31 51 b3 bb ed 45 b8 bb
       0.005470092 -0.0057689548 -0.0054723253 -0.00562357
000300 33 38 0b 3c 7b eb d6 99 11 c3 32 b9 73 a4 17 bc
       0.008497286 -2.2222191e-23 -0.00017048071 -0.009255516
000310 79 50 86 3a da 70 30 bc 00 c7 10 bc 03 89 b7 bb
       0.0010247371 -0.010769093 -0.008836508 -0.00560105
000320 24 86 ee b1 1f 7c 6d 3a 04 9c 87 bb c3 b3 f8 3b
       -6.9419617e-09 0.0009059328 -0.0041384716 0.0075897886
000330 44 4c 43 3c 90 d1 73 3c fe 6c e7 bb 10 23 0e 3c
       0.011920039 0.014881507 -0.0070625534 0.008675352
000340 9f ba 04 3d 4d c4 1c bc 37 2a 20 3c 2c 7d 00 bc
       0.03240454 -0.009568286 0.00977569 -0.007842343
000350 00 00 00 00 ae 79 73 3b ff 0e 86 3b 41 62 06 3c
       0.0 0.0037151384 0.004091143 0.0082021365
000360 56 d1 b4 ba f3 7c 42 bc b6 45 09 3a b0 fd 38 3b
       -0.0013795297 -0.0118706105 0.0005236523 0.0028227381
000370 12 b7 81 3b 65 24 90 3b 29 c5 91 3c 40 94 7d 3c
       0.0039585913 0.00439887 0.017794209 0.01547724
000380 c4 60 7b 3b 96 6d 15 b9 87 4a 5d bb 00 00 00 00
       0.0038357237 -0.00014250571 -0.0033766346 0.0
000390 9e 98 7c 3c e9 aa a5 bb 2d 80 b1 bb 04 d4 7a b9
       0.015417246 -0.0050557745 -0.005416891 -0.0002392084
0003a0 02 f1 1f bb 81 fe 14 3c e5 ef 15 bb 0f a8 84 3b
       -0.0024405126 0.009093882 -0.0022878584 0.0040483545
0003b0 eb e9 65 bc 58 fe e0 bb 00 00 00 00 22 3f 6f 3c
       -0.014032821 -0.0068662576 0.0 0.014602454
0003c0 84 ef 59 9f 1c c0 02 bc b3 52 ca bb 8e 34 1f bc
       -4.614966e-20 -0.007980373 -0.0061744093 -0.00971712
0003d0 18 66 21 3b aa 6e a7 3b 7b e3 35 bb 63 86 e1 b5
       0.0024627503 0.0051096277 -0.0027753997 -1.6802918e-06
0003e0 54 8d 00 3d b2 34 04 bc 0b b7 2d 3c c9 d4 b0 bb
       0.03138478 -0.008069204 0.010602723 -0.0053964597
0003f0 bd 47 ad 3b 08 9e 07 bb 60 c9 b0 bb 0b 6b 38 bb
       0.005288093 -0.002069356 -0.0053950995 -0.0028139974

arith.constant26 f4 [512, 64]
000000 ef 40 12 3d 1d ae c1 bd 00 7c 8f 3d 93 ac d2 3d
       0.035706457 -0.094570376 0.07006073 0.10286822
000010 26 88 d6 bd 6e 02 ae bd 17 93 a1 bd f8 ba b0 bd
       -0.10475187 -0.08496557 -0.07889383 -0.086294115
000020 5c 2a 1b 3d 8d 42 da bd b5 b1 3a 3d 44 cc 6f 3d
       0.037882194 -0.10657225 0.04557963 0.058544412
000030 d6 85 b2 3d f4 1c 27 bd ad 08 1a bd 90 de a4 3d
       0.087169334 -0.040799096 -0.03760593 0.08050263
000040 55 2f 3e 3d ee 3a 54 3d 45 f9 12 bc a1 e2 af bd
       0.046431858 0.051814012 -0.008970563 -0.08588148
000050 64 2e 07 bd e0 f1 37 bd 19 97 12 3d 68 2d 8b bd
       -0.033003226 -0.044908404 0.03578863 -0.0679577
000060 fc 8e d5 3c 85 3f 67 bd df 4c b9 3d af 1b db bc
       0.026069157 -0.05645706 0.09047865 -0.026746599
000070 be b5 b1 3d fa 71 ba bd a4 18 b9 bd 41 1e 84 bd
       0.08677243 -0.091037706 -0.09037903 -0.06451083
000080 0e bb 4c bd f1 50 c1 bd ad 96 bb bd 18 f8 b0 bd
       -0.049983077 -0.094392665 -0.091595985 -0.0864107
000090 0c fe 72 3d a1 6d 23 3d 9b 63 52 3d 30 c5 bd bc
       0.05932431 0.039899472 0.051364522 -0.023165315
0000a0 60 39 30 3d 3e b7 87 bd df 0d 53 bd a0 e1 bb bd
       0.043023467 -0.066267475 -0.0515269 -0.09173894
0000b0 94 78 9e 3d 25 2a bf bd 00 25 a3 bb b3 77 85 bd
       0.07737842 -0.0933421 -0.004978776 -0.065169714
0000c0 9a a5 b1 3d 15 0e 21 bd 8b e5 3c bc f0 f0 a1 bd
       0.08674164 -0.03932007 -0.011529337 -0.07907283
0000d0 c0 ca d0 bd 3f 2f 6b bc c3 e9 3a 3d a0 9e f8 bc
       -0.101949215 -0.014354526 0.04563309 -0.030349076
0000e0 cc 3d 73 3c 54 e2 20 3d 4b fe 8b 3c 7b 11 be 3d
       0.0148462765 0.039278343 0.01708903 0.09280678
0000f0 39 59 0d 3d 80 75 44 bd 92 64 1f 3d 36 70 b0 3d
       0.034508917 -0.04796362 0.03891427 0.086151525
000100 a9 d2 9a 3d 3c 8d b1 3d 1a 2c b1 3b 89 d1 0b bd
       0.075597115 0.086695164 0.0054068686 -0.034135375
000110 7c f4 24 bd b8 a0 b8 3d 3c a3 67 3d e6 a0 96 bd
       -0.04027222 0.0901503 0.056552157 -0.07354908
000120 98 42 38 3d f6 f0 0a bd 5d 96 56 3d 3d da a0 3c
       0.044985384 -0.033921205 0.05238949 0.019635314
000130 19 28 ae 3d ad 40 29 3c bb ea 9a 3d e0 01 ac bc
       0.08503742 0.010330361 0.075643025 -0.020996988
000140 b4 2b b7 bc fe 40 94 3d 6f 5c a3 bc 43 57 87 bc
       -0.022359706 0.07238959 -0.019941537 -0.016521102
000150 40 03 98 3b d7 27 5b 3c 1b 41 8d 3d 3b a0 6c 3b
       0.0046390593 0.013376198 0.068971835 0.0036106247
000160 7c 61 97 3d 1f 89 31 3d 2b ab b8 3d 4f 83 d4 3c
       0.073916405 0.04334366 0.09017023 0.025941519
000170 18 e0 d4 3c 6b 06 ce ba 0b a0 3e bb 5a ce 82 3c
       0.025985762 -0.0015718465 -0.0029087092 0.015967537
000180 86 3f b4 3d 09 87 43 bd 51 53 91 bd 80 9b 77 bb
       0.08801179 -0.0477362 -0.070959695 -0.0037781894
000190 28 80 13 bd 2b 3a c3 bd b5 75 ab bd 53 25 ce bd
       -0.03601089 -0.09532579 -0.0837206 -0.10065713
0001a0 03 15 8a bd e0 a0 2c bd d9 56 6e bd 47 2c 8f 3c
       -0.06742289 -0.04214561 -0.058188293 0.017477168
0001b0 fe ff 56 bd f7 6c bb bd 80 27 63 3c 27 78 33 3d
       -0.052490227 -0.09151643 0.013864398 0.043815758
0001c0 18 63 70 bd cc a1 d6 bd 46 ef aa 3d 15 19 d2 3c
       -0.058688253 -0.10480079 0.08346419 0.025646726
0001d0 70 6f 38 bc f8 8c 22 bd e5 15 19 3d 84 2e c2 bc
       -0.0112570375 -0.03968522 0.037374396 -0.023703821
0001e0 aa 2f 7c bc 66 21 2e 3d 6d f0 62 bd 4c 88 81 3d
       -0.015392223 0.04251232 -0.05540507 0.06324825
0001f0 89 86 83 3d a6 fc 93 bd 17 4f ae bd 07 56 81 3d
       0.06422145 -0.07225923 -0.08511179 0.063152365
000200 68 94 9d bb 38 12 7d 3d db 2b 70 3c d0 13 90 bd
       -0.004808951 0.061784953 0.014658893 -0.07035029
000210 0f 57 b4 3c f9 65 d0 bd 2a 2b cc bd 06 82 a4 bd
       0.022014169 -0.101757 -0.099691704 -0.080326125
000220 28 88 86 bd e0 f3 d3 bd bb 52 a4 bd 6c 9a 42 bd
       -0.065689385 -0.1034925 -0.08023592 -0.04751055
000230 16 98 3d bc f6 84 b9 3d 52 1d a2 bd 19 52 11 3d
       -0.011571905 0.090585634 -0.07915749 0.035478685
000240 ec cf b6 3d 0b 54 c4 3b 58 26 3d bd 00 73 c3 3a
       0.08926377 0.005991464 -0.046179146 0.0014911592
000250 40 b7 a7 bb f7 3a 83 bd 65 47 88 bd 5c 3b e7 bc
       -0.0051182806 -0.06407731 -0.066542424 -0.028226547
000260 0e ef 15 3d 39 39 97 bc 2f d3 d1 bd 9a 2a f9 bd
       0.036604933 -0.018459903 -0.10245358 -0.12166329
000270 d2 8d ba bd 7e e7 02 bd a8 08 b6 bd fd 53 ad 3d
       -0.09109081 -0.03195905 -0.0888837 0.08463285
000280 e2 7a ce 3c 44 1c 01 bd 30 b5 97 bd 0d 1d 32 bd
       0.02520508 -0.031521097 -0.07407606 -0.043484736
000290 fd 28 b5 3d d3 92 db bd bc 88 25 3d cf bf ab bd
       0.088457085 -0.10721364 0.040413603 -0.08386194
0002a0 e6 c5 83 ba ec b1 b1 bd b2 e9 8c bd d4 3a 5c 3d
       -0.0010053485 -0.08676514 -0.06880511 0.05376704
0002b0 12 e5 47 bd e8 a2 90 3d 08 89 5d bc fe e2 ce 3d
       -0.048802443 0.07062322 -0.01352144 0.10101889
0002c0 c0 b4 3b bc 2d 91 b3 bd 4f b7 97 bc 2b 52 f0 bc
       -0.011456668 -0.087679245 -0.018520026 -0.029336056
0002d0 ff 7f 24 bd 7d de a8 bd 56 ad 83 bb 60 e4 aa bd
       -0.04016113 -0.08245561 -0.004018466 -0.0834434
0002e0 52 2f 5a bd ec e3 c7 3d 06 60 71 bd 98 4e 25 3d
       -0.053267784 0.097602695 -0.058929466 0.040358156
0002f0 4c 98 2f 3d 12 ee 05 bc e0 e5 b3 3c 82 af b2 3d
       0.04286985 -0.008174436 0.021960199 0.08724882
000300 ba f2 b5 bc b6 66 ae bd 6d 56 34 3c a8 8d c7 3c
       -0.022210468 -0.08515684 0.011006934 0.02435954
000310 24 11 04 3d f7 3e 79 bd 76 8b 93 3d 89 9e 97 bd
       0.03224291 -0.060851064 0.072043344 -0.07403285
000320 e8 3f 5b bc b0 2f 98 3d 32 55 8b bd 2c 9f 36 bd
       -0.013381936 0.07430971 -0.06803359 -0.044585392
000330 18 ba 6b 3d f9 8e dd bc 0d f1 96 bd db 26 e7 3c
       0.05755052 -0.027045714 -0.073701955 0.02821677
000340 bf 79 35 3d 24 8a 72 3d 54 7b ab bb b1 8c 8e 3c
       0.04430556 0.059213772 -0.0052332077 0.017401071
000350 89 74 c6 bd f6 7b 11 3d 5e e9 3f 3d 87 28 a7 bd
       -0.09690196 0.03551861 0.046853416 -0.08162027
000360 cc b0 b7 3d f6 ba 3a bd 63 34 a2 bd a7 90 6e 3d
       0.08969268 -0.045588456 -0.07920148 0.05824342
000370 06 03 37 bd 7a eb 8a 3d 8a 49 d6 bd b5 8a 81 3d
       -0.044680618 0.06783195 -0.10463245 0.063252844
000380 e7 7e 92 3c e7 10 e6 bd d6 9a e7 3c 24 86 a8 3d
       0.017882777 -0.112336926 0.028272074 0.0822871
000390 69 39 d7 bd 51 1a 2c bd 46 81 47 bd 3f 12 b3 bb
       -0.10508997 -0.042017285 -0.04870727 -0.0054648216
0003a0 83 28 17 3d 25 7f ae 3d 94 4f e2 3c c8 7c 31 ba
       0.03690387 0.08520345 0.027625836 -0.0006770608
0003b0 8d 2d 3e bd a6 54 b4 3c f8 00 b6 3c c9 bb bf 3d
       -0.04643016 0.02201302 0.022217259 0.09361989
0003c0 8c c6 45 bd 00 7b 1a 3b bb 16 ca 3c df 0e a6 3d
       -0.048285052 0.002357185 0.024669042 0.08108305
0003d0 e7 1e 77 3d 7e ef 8b bd 81 d0 2b bc 60 47 4e 3d
       0.060332205 -0.06832789 -0.010486723 0.050361037
0003e0 77 3f 09 bc ea a6 2e bd 10 82 8a bd 60 8b 52 bd
       -0.008376948 -0.04263965 -0.06763089 -0.05140245
0003f0 ae e6 29 bd 3d 23 92 bd 39 1c b0 bd 1a b8 b9 bc
       -0.04147976 -0.071356274 -0.08599133 -0.022670794
